assets/cervical_model.tflite (tflite, 12568 bytes, 5 tensors)

arith.constant f4 [1, 32]
000000 ae 7b 4f be ce c6 02 be e9 9a b6 3e 2d 59 94 be
       -0.20262024 -0.1277115 0.35665062 -0.28974286
000010 84 d1 05 be a8 4c 59 bd 10 e5 39 3e e4 c7 26 3e
       -0.13068205 -0.05305162 0.18153787 0.1628719
000020 de 99 10 3e c2 34 c6 be 87 ac b6 3c 78 83 c2 3d
       0.14121196 -0.38712126 0.022299064 0.09497732
000030 80 60 7d 3e 10 30 66 be 81 47 9d be d5 18 b1 3e
       0.24743843 -0.22479272 -0.30718616 0.34589258
000040 b9 18 b3 3e 14 57 2b be 00 26 6b 3e 5a 0b 72 be
       0.349798 -0.16732436 0.22963715 -0.23637143
000050 04 d3 1b 3e d6 2b 7d be 8c b4 cb be 49 ce b6 3d
       0.15217215 -0.24723753 -0.39786184 0.089260645
000060 ec b5 c7 3d 46 1a 87 3d 78 84 13 bd 29 ed c8 bd
       0.09751496 0.06596808 -0.036015004 -0.0981086
000070 10 08 b1 be cc b2 a7 bd 13 ca 27 3d 84 53 00 3e
       -0.34576464 -0.081884 0.040964197 0.12531859

arith.constant1 f4 [32, 64]
000000 9e bc b6 3e 20 ac 13 3e 16 b8 c4 3c 5a 68 0e 3e
       0.35690778 0.14421129 0.02401356 0.13906994
000010 18 98 78 be 8f ac 1d 3e 6f 6d dd 3d cb e2 7a 3e
       -0.24276769 0.15397857 0.108118884 0.24500577
000020 80 c6 16 3d c8 1d d9 bd 9e 33 57 bd b6 7b 84 be
       0.036810398 -0.106013834 -0.05253946 -0.25875634
000030 bb ed 2a be ea f7 1a be f4 b9 22 be 88 72 e6 3d
       -0.1669225 -0.15133634 -0.15891248 0.11252314
000040 98 86 1e 3e b2 63 d8 3d e5 0a 38 3e 40 75 4a 3e
       0.15481031 0.1056589 0.17972906 0.1977129
000050 e0 d7 20 be b2 b5 02 be 33 bf 26 be ef 5f f0 3b
       -0.1570735 -0.12764624 -0.16283874 0.007335655
000060 7d 0c 41 3e 3d cd 8d bc 4d 18 80 be 70 39 9f 3d
       0.1885242 -0.01730978 -0.2501854 0.07774627
000070 e8 c5 59 be 9e aa 06 3e 4e e8 bf bd 00 a0 6d bc
       -0.21266901 0.13151023 -0.093704805 -0.014503479
000080 84 8a 20 3e 5b b4 37 3e a6 77 62 be 09 20 91 3e
       0.1567784 0.17939894 -0.22115955 0.28344753
000090 33 fd 0c be 57 1d bb 3d 60 4a e4 3d ac 19 32 be
       -0.13768463 0.091364555 0.111469984 -0.17392606
0000a0 e1 58 a7 bc f3 db 05 3e d0 0b d2 3e 43 d4 44 3e
       -0.020428123 0.13072185 0.41024637 0.19221596
0000b0 cc f0 f4 bc 00 cc a2 bb 72 f3 99 3e 67 10 1e 3e
       -0.029899977 -0.0049681664 0.30068547 0.15435944
0000c0 fd 6e eb 3c 99 93 f5 3c a0 4b c6 3c 50 df 38 be
       0.028739447 0.029977607 0.024205983 -0.18053937
0000d0 97 e7 f9 3b b8 69 17 3e 65 04 f4 bd b0 f5 14 bd
       0.0076264846 0.14786422 -0.11914901 -0.03636712
0000e0 65 01 fc bd ea b5 1e bd 3d 9e 56 be 78 21 ae 3d
       -0.123049535 -0.038747706 -0.209588 0.085024774
0000f0 4e bb 96 bb 10 ca 25 be 6a ec 09 bd 35 f9 42 bc
       -0.004599965 -0.16190362 -0.033672728 -0.011900236
000100 23 ea 03 3f e0 9e a7 3c e2 e3 43 3e 16 72 c0 bd
       0.5152914 0.0204615 0.19129899 -0.0939676
000110 58 5a df bd 0c e7 b1 bd 29 89 2b bd e1 be f8 3d
       -0.109059036 -0.08686647 -0.041878853 0.12145782
000120 b8 34 b1 3d e0 4d e6 3d 8b dd 47 3e 37 29 03 3e
       0.086526334 0.11245322 0.19518106 0.12808691
000130 67 10 b2 3d e7 25 72 be 20 47 ad 3c 94 a3 13 be
       0.08694535 -0.23647271 0.02115208 -0.14417869
000140 74 6e 56 be 98 0b 3c 3e b3 30 49 3e 48 85 2d 3e
       -0.20940572 0.18363798 0.19647484 0.16945374
000150 40 12 d6 3d bc d5 93 3d dd cb a2 3d 51 6f 66 be
       0.104527 0.07218501 0.0794904 -0.22503401
000160 3e bd 8e bd 9a 56 9b 3e 82 f5 11 3e 9c 15 74 be
       -0.06969689 0.3033951 0.1425381 -0.23836368
000170 3e 7f 97 3e 3b f6 31 3b 1d b2 8e 3d 8c 11 74 3e
       0.29589266 0.0027154821 0.06967566 0.23834819
000180 78 21 ef 3d 15 37 a4 3d c8 b7 43 3c 2a a4 34 be
       0.116763055 0.080183186 0.011945672 -0.17640749
000190 37 ff 21 be d0 dc 72 be 50 91 6b 3d c8 69 b8 bd
       -0.15820013 -0.23717046 0.057511628 -0.09004551
0001a0 0a c8 26 be f6 8f 99 3d e9 73 fd 3e c2 af 61 3c
       -0.16287246 0.074981615 0.49502495 0.013774814
0001b0 d3 0a ce 3c e8 8c 2c 3e 9c 0a 92 3e 67 c1 80 3d
       0.025151646 0.16850626 0.2852372 0.062868886
0001c0 d8 06 40 be fc 08 09 be 80 00 b9 bd c0 68 56 3e
       -0.1875261 -0.13382334 -0.090332985 0.20938396
0001d0 a6 e2 7a 3e 5c 08 31 be 6d 41 7c be d8 60 89 bd
       0.24500522 -0.17288345 -0.24634333 -0.067079246
0001e0 a3 1e fc 3d 77 60 82 3d a5 eb 67 be e4 e8 70 be
       0.12310531 0.063660555 -0.22648485 -0.2352634
0001f0 d5 20 02 be cc d9 27 be 3c 13 24 3d fe 31 c6 3a
       -0.12707837 -0.16391677 0.040057406 0.00151211
000200 5c 1c 46 be e0 24 77 3d c2 ff 53 be 20 6e 6e be
       -0.19346756 0.0603379 -0.20703033 -0.23284197
000210 f4 60 60 3e a8 43 4c be 17 1b 08 3d 49 78 e2 3d
       0.21911985 -0.19947684 0.03322896 0.11058099
000220 fc 2a 78 be 3c af 23 3e ba 66 d9 bc 34 3b 8d 3d
       -0.24235147 0.15984815 -0.026538242 0.06896058
000230 0b d8 76 3d 46 9a e1 bd 80 c4 4e 3d 80 10 c7 bb
       0.06026463 -0.110157534 0.050480366 -0.006074965
000240 c0 aa 76 3e 90 64 eb bd 23 98 1c 3d da a5 2e 3c
       0.24088573 -0.1149379 0.038231026 0.010659659
000250 00 1b 24 3c 4d 86 48 3e 1e 8a 30 3e 17 bf 9d bd
       0.010016203 0.19582482 0.17240188 -0.07702463
000260 6f 41 85 be cc 57 3c bd a0 99 40 bd 20 e7 67 bd
       -0.26026484 -0.045982167 -0.04702151 -0.056616902
000270 bd f5 af 3d cd e4 62 3e bd 06 cc bd 90 3c 55 bd
       0.08591793 0.22157593 -0.09962223 -0.05205971
000280 54 f4 3c be 98 63 55 be 5d 1f b1 3d 00 c4 80 be
       -0.18452579 -0.20838773 0.0864856 -0.25149536
000290 fe 78 f1 3b 79 8d 4c bd 58 8c 91 3d 4c dd 7a be
       0.0073691597 -0.049939606 0.071068466 -0.2449848
0002a0 26 d6 4e 3e fb e2 21 be b4 c0 56 be 8a 38 f2 bd
       0.20198879 -0.15809242 -0.20971948 -0.1182719
0002b0 38 65 82 be 44 15 61 3e cc 84 5e be 80 9c d3 3b
       -0.2546785 0.21980768 -0.21730345 0.0064578652
0002c0 3e a8 65 3e 94 fd 95 3d 50 dc ab bd 18 1c 8d bd
       0.2242746 0.07323757 -0.08391631 -0.06890124
0002d0 d0 18 54 3e 44 d4 08 3e d5 39 f4 3d 04 8f 4f 3e
       0.2071259 0.13362223 0.11925093 0.202694
0002e0 3f a0 c7 bd 78 4a 5f be 0f 9d 87 be a0 ab 8e bc
       -0.097473614 -0.21805751 -0.26487014 -0.017415822
0002f0 ed 98 e1 3d bc 6a 58 3e 14 9f 86 be 80 e0 7d 3c
       0.110154964 0.21134466 -0.26293242 0.0154954195
000300 7b 9a 4c 3e 50 a4 24 3d 0c 1b 78 be a6 12 9c 3d
       0.19980805 0.040195763 -0.24229068 0.076207444
000310 88 7d 4e 3e 89 67 50 3d fa 7e c1 3a 88 46 2d 3d
       0.20165074 0.05087999 0.0014762573 0.042303592
000320 e8 01 21 3e 00 7f e1 bb 8e ce 18 3d c0 f0 06 3e
       0.15723383 -0.0068815947 0.03730636 0.13177776
000330 26 43 2b be 76 37 38 3e 10 e7 3b 3d d0 2b 9a 3d
       -0.16724834 0.17989907 0.045874655 0.07527888
000340 e0 ff 6a bd b9 3a d7 bd 54 ca fc 3c cc 9f 58 3e
       -0.057372928 -0.10509247 0.030858196 0.21154708
000350 f8 fd 76 3e 5f 82 47 be e3 d4 71 be fd ad 25 3e
       0.24120319 -0.19483326 -0.23616366 0.16179653
000360 7a ad 07 bd 0f 66 80 be c2 99 8b 3b 34 3b 39 3e
       -0.033124425 -0.25077865 0.0042602727 0.1808899
000370 99 62 0b bd 9a 20 64 3e cb a1 c9 3d 70 e9 9a 3d
       -0.034029577 0.22278062 0.09845313 0.07564056
000380 d0 6c e9 bd 17 bf 6e 3e df 77 9e bd cc 02 54 3e
       -0.113977075 0.23315082 -0.07737707 0.20704192
000390 d3 37 e9 3d 45 39 a8 3d e4 5a 5f 3e d8 13 88 bd
       0.11387601 0.08214048 0.21812016 -0.0664441
0003a0 2d b6 66 be 24 b2 2b 3e d7 55 8e 3e e9 7a f1 3d
       -0.22530432 0.16767174 0.27799866 0.117910214
0003b0 59 54 58 be e4 13 32 be be 04 35 3e 0a f1 16 be
       -0.21125926 -0.173904 0.1767759 -0.14740387
0003c0 0f 6c 6c be b4 99 13 3e c0 55 6a bc 54 47 4d 3e
       -0.23088096 0.14414102 -0.014302671 0.20046741
0003d0 a8 a9 6c 3d 20 82 9c 3d da eb 1d 3e 38 e8 0d be
       0.057778984 0.07642007 0.15422001 -0.13858116
0003e0 f4 62 68 be f7 5a 12 3e 7d 2a f2 bd 00 9b 2d 3e
       -0.22693998 0.14292513 -0.1182451 0.16953659
0003f0 c5 fb cd 3d f0 91 8e 3d 67 e6 77 be 45 7e a5 3d
       0.10057787 0.06961429 -0.24208985 0.080807246

sequential_1/dense_1_2/BiasAdd/ReadVariableOp f4 [32]
000000 d0 67 bb 3d 82 b2 b1 3d 1b 58 ad bc df 0d c5 3d
       0.0915066 0.08676626 -0.021160176 0.09621786
000010 00 00 00 00 00 00 00 00 00 00 00 00 00 00 00 00
       0.0 0.0 0.0 0.0
000020 dd f4 cb bd c1 f7 bd 3d 92 d5 b3 bd 00 00 00 00
       -0.09958813 0.09275771 -0.0878097 0.0
000030 97 0e c8 bd 5b a4 c3 3d 8b 1b bc 3d 31 ca aa bc
       -0.09768408 0.09552833 0.09184941 -0.020848366
000040 82 0a 7c bc a6 9c 9c 3b 00 00 00 00 27 b7 7a bc
       -0.015383365 0.004779416 0.0 -0.015302456
000050 bb c1 cc bd 03 75 dd 3d f4 a0 be 3d 1a ef 3d bc
       -0.09997889 0.10813334 0.09308043 -0.011592651
000060 4d 3e c7 bd 11 2a cf bd 00 00 00 00 34 5f 05 bc
       -0.0972868 -0.101154454 0.0 -0.008140374
000070 00 00 00 00 00 00 00 00 8e 4b d7 bd 00 00 00 00
       0.0 0.0 -0.10512458 0.0

sequential_1/dense_1/BiasAdd/ReadVariableOp f4 [64]
000000 dc 68 df 3d 00 00 00 00 8d 21 fe bd a4 9e 8f 3d
       0.10908672 0.0 -0.12408743 0.0701268
000010 00 00 00 00 d4 2e 8b 3d cc 1f 10 3e 0e 31 53 3d
       0.0 0.06796041 0.1407463 0.051560454
000020 00 00 00 00 00 00 00 00 b8 1c cc 3b 5a 86 e4 bd
       0.0 0.0 0.0062290095 -0.11158438
000030 dc 14 f2 bd 56 48 4c 3d 00 00 00 00 00 00 00 00
       -0.11820385 0.049873672 0.0 0.0
000040 00 00 00 00 04 65 bd bc 9c ef 07 be 64 d1 d5 3d
       0.0 -0.023119457 -0.13274997 0.10440329
000050 00 00 00 00 24 5d e7 bd 1c b6 db bd cb 98 7c 3b
       0.0 -0.11297062 -0.10728094 0.003854322
000060 99 69 9c 3d 93 5d e9 bd 83 9a 9b bc 00 00 00 00
       0.07637329 -0.11394801 -0.018994575 0.0
000070 92 24 d1 bd 82 e7 32 be 44 1c 36 3d 00 00 00 00
       -0.10212053 -0.17471126 0.04446055 0.0
000080 00 00 00 00 19 42 9b 3d 6e 4f d8 bd e9 52 c7 3d
       0.0 0.075809665 -0.10562025 0.09732611
000090 b3 df c4 3d 02 e7 e6 3c 00 00 00 00 00 00 00 00
       0.0961298 0.028186325 0.0 0.0
0000a0 6f 8b eb bd a0 d3 bc 3d a1 a4 1b 3e 91 f7 9c 3d
       -0.11501204 0.09220052 0.1519952 0.07664407
0000b0 cf 68 fe bd 00 00 00 00 24 99 4f 3d be ad 0f bd
       -0.124223344 0.0 0.050683156 -0.035077803
0000c0 83 53 a9 bd 95 bc fc bd 00 00 00 00 00 00 00 00
       -0.08267882 -0.12340657 0.0 0.0
0000d0 42 28 1c 3d 00 00 00 00 88 ee cb bd 00 00 00 00
       0.03812433 0.0 -0.099576056 0.0
0000e0 1e 5c ab bd ee 0a 28 bd 78 8c 8e bb 00 00 00 00
       -0.08367179 -0.04102605 -0.0043502413 0.0
0000f0 16 43 4e 3d 00 00 00 00 93 26 a6 3d f2 9f a3 bc
       0.050356947 0.0 0.08112826 -0.019973729

sequential_1/dense_1/MatMul f4 [64, 7]
000000 7f 5a dc bd 9a 3f 6a 3e 13 90 c2 3d d5 b4 e5 3d
       -0.10759448 0.22875825 0.09500136 0.112161316
000010 39 3a 13 3f 92 d8 00 be a0 c0 26 3c 88 e6 4e be
       0.57510716 -0.12582615 0.010177761 -0.20205128
000020 86 56 04 be 18 41 6b 3d 8e b3 3b 3e 80 1f 20 3c
       -0.12923631 0.057435125 0.18330213 0.009773135
000030 62 96 2a be 46 99 dc bd fc a6 d4 3c 1e ff 92 be
       -0.16658929 -0.10771422 0.02595853 -0.28710264
000040 09 73 4e 3e 47 01 48 be 81 c5 42 3e bf bb 82 3e
       0.2016107 -0.19531737 0.19020654 0.25533864
000050 db 3d d1 3e fa d1 83 3e f6 05 35 3e 80 9d 91 bd
       0.40867504 0.25746137 0.17678055 -0.07110119
000060 0a 2d 9c bd b7 4d 00 3e 29 1e 61 be b2 ae a0 be
       -0.07625778 0.12529646 -0.21984161 -0.31383282
000070 e6 1e ed bd 70 37 37 bd cc 55 da bd c6 40 07 be
       -0.11578159 -0.044730604 -0.10660896 -0.13208303
000080 f4 ae 33 be ec 68 a2 bd 84 ce d7 bd 2b 8c 00 3e
       -0.17547208 -0.079301685 -0.105374366 0.1255347
000090 02 a7 12 be d4 05 78 3e 9c 60 c0 bd 6b e9 05 be
       -0.14321521 0.24220973 -0.09393427 -0.13077323
0000a0 6e a1 1a bf 7a a8 b6 be bc 90 8c bd 51 f8 be bd
       -0.6040257 -0.35675412 -0.068635434 -0.09324706
0000b0 cf a5 3b 3e 5c e2 10 3e 9f ec 5a bd b1 3c 20 bf
       0.1832497 0.14148849 -0.053448316 -0.6259261
0000c0 19 3d d0 be b9 fe 66 3e 4e c5 8e be 4e f7 44 bd
       -0.40671614 0.22558106 -0.27884907 -0.04808741
0000d0 8d 95 4d 3e 88 6a f6 bd fe 15 2e bf 6e f9 d8 3d
       0.2007658 -0.12032038 -0.6800231 0.1059445
0000e0 50 37 83 be 9c d8 d8 3d f8 0f e7 3d c8 71 26 bd
       -0.25628138 0.1058819 0.11282343 -0.040635854
0000f0 ef e0 1c be 70 09 97 3d c0 e1 e8 3d fc 4b 8a be
       -0.1532018 0.07374847 0.113711834 -0.27011096
000100 7e 56 0e be 70 b4 eb 3d f4 65 cb bd aa 6f 52 be
       -0.13900182 0.11509025 -0.099315554 -0.20550409
000110 00 7b a6 bb 8a c4 cc bd be 08 02 3d 72 fb 62 bd
       -0.0050805807 -0.09998424 0.03174662 -0.05541558
000120 bf c1 98 3d 7d 4d f0 3d bc 50 5f 3e 23 24 1a be
       0.07458829 0.1173353 0.21808141 -0.15052848
000130 6d 9c 88 be 81 e6 57 3e f5 d1 1a bd 93 20 56 be
       -0.26681843 0.21084024 -0.037797887 -0.20910864
000140 8a 29 23 3e ea 52 76 bd 97 a0 01 3f 44 74 5a 3e
       0.15933815 -0.060137667 0.50635666 0.21333414
000150 10 2f 20 3e 32 4f 7b be 0b 45 29 3c 29 5c 13 be
       0.15642953 -0.2454193 0.0103314025 -0.14390625
000160 ad d7 00 be 0f 3c ba 3e 24 78 6f bd 13 df 46 3e
       -0.12582274 0.36373946 -0.058464184 0.19421034
000170 86 c4 23 be 34 70 03 3e 6b 5e 91 be 1b 5b 8f 3d
       -0.15992936 0.12835771 -0.28392348 0.06999799
000180 0a bf 1c bf da ed 81 be fe 0e 4d be 77 7c 0d be
       -0.61229 -0.2537678 -0.2002525 -0.13817011
000190 c0 17 e6 bd 7c d7 dc 3d a2 78 6a 3e b1 c4 89 3e
       -0.11234999 0.10783288 0.2289758 0.26907876
0001a0 c3 37 13 be 95 52 8a be aa 47 72 be 98 58 f3 bd
       -0.1437674 -0.2701613 -0.2366015 -0.11882132
0001b0 f6 46 8c be d0 ff 2f 3d cf c2 1e be 7a 91 69 3e
       -0.2739789 0.04296857 -0.15504001 0.22809401
0001c0 be 0b da bd b0 f9 ef bc b4 76 c8 3d ea b2 b6 bd
       -0.10646771 -0.029293865 0.09788266 -0.08920844
0001d0 ce 80 11 3e 98 a7 01 3d 5e 6e 7c 3e 05 90 71 be
       0.14209291 0.03165397 0.24651477 -0.23590095
0001e0 28 5a 39 bc 91 5f 51 3e af 1e 8a bc 73 6e 44 be
       -0.011312999 0.20446612 -0.016860334 -0.19182758
0001f0 00 ec ae 3a 0a 50 67 3e 7e aa 37 bd c0 1b 60 3e
       0.001334548 0.22589126 -0.04484033 0.21885586
000200 f0 58 af 3d b5 e6 78 3e 89 85 46 3e af 3d 36 3f
       0.08561885 0.24306758 0.19386877 0.7118787
000210 79 26 b4 3e 07 d5 8a bd 62 ab e6 3d 73 25 5c 3e
       0.35185602 -0.06778913 0.112631574 0.2149866
000220 ca cf 15 be d6 d9 22 3e 52 9c 13 bf 71 67 9a be
       -0.14630046 0.1590341 -0.576604 -0.30157045
000230 e0 97 86 be 58 ee 04 be 6a 53 b9 bd 01 05 81 be
       -0.26287746 -0.12981546 -0.09049113 -0.2519913
000240 a8 c3 49 3d 1f f3 82 3e b0 b7 2a 3e b6 c6 f1 3d
       0.049258858 0.25576112 0.16671634 0.11805479
000250 2f c5 23 be 23 2a 84 3c e6 08 ca bb 7e f9 a5 3e
       -0.15993188 0.016133374 -0.0061656116 0.3241691
000260 5d cb 96 3e a2 a3 93 3d 08 48 53 3d 50 f9 2e be
       0.2945203 0.07208945 0.051582366 -0.17087293
000270 4a de 8b 3e a2 09 15 3e 4e 16 4c 3d 97 22 90 3e
       0.2731803 0.14554456 0.04982596 0.2815139
000280 1f 49 d2 3e 9e 5c 3c 3e 71 e6 00 be 9e 6f 07 3e
       0.41071412 0.18394706 -0.12587906 0.13226172
000290 85 eb 60 be 3f 75 83 bc 1a 77 38 bf 81 2e 0d be
       -0.21964844 -0.016047118 -0.72056735 -0.13787271
0002a0 8a c3 89 3e c5 a3 35 3e 39 63 67 be 90 d2 89 be
       0.26906997 0.17738254 -0.22596444 -0.2691846
0002b0 bd af aa bd 9f 69 54 be 37 a4 c6 bd d9 ba f6 3d
       -0.08334301 -0.20743416 -0.0969929 0.12047357
0002c0 9e ad c7 3d a4 d3 b6 bd a5 ad 5f be 96 22 ac 3e
       0.09749912 -0.08927086 -0.21843584 0.33620137
0002d0 3d bb 2a 3f 82 94 99 bc aa f8 f7 3d 3e 7b 8a bd
       0.6669195 -0.018747572 0.12107976 -0.06761788
0002e0 91 09 71 be 44 31 e0 bd 79 ee 86 3e 6b a1 bd 3d
       -0.23538806 -0.10946897 0.26353815 0.09259304
0002f0 2f 7d e3 3e 80 72 45 bc d0 d8 90 bc b5 f7 61 be
       0.44431445 -0.012051225 -0.01768151 -0.22067149
000300 42 de 6b be 9c af 02 be 6a 7b 69 3e 96 99 32 3e
       -0.23034003 -0.12762302 0.22800985 0.17441401
000310 18 3d 45 bd 81 b0 88 3e a7 25 0f 3e 46 0a ab 3a
       -0.048153967 0.26697162 0.13979207 0.0013049326
000320 8a af 0b be 96 16 b1 3e 87 1a ce 3d f8 bc 44 3e
       -0.13641182 0.34587544 0.100636534 0.19212711
000330 e3 f4 15 be 5b ae e2 bc 12 d5 56 be 90 97 ae 3d
       -0.14644198 -0.02767103 -0.20979717 0.08525002
000340 b5 80 0a 3f 26 3b a0 3e 65 fa e3 bd 24 ad 42 be
       0.5410264 0.31295127 -0.11131743 -0.1901136
000350 1e 51 34 3e 2c b5 68 3e 45 32 03 be 2c 0c 0a be
       0.17609069 0.22725362 -0.12812145 -0.13481206
000360 ea 28 ea bd 76 23 15 be d7 18 12 be 77 0f 91 be
       -0.11433585 -0.14564309 -0.14267288 -0.2833211
000370 f8 fb bf 3d 60 c1 46 3c 10 c0 b0 3c e2 81 0b be
       0.09374231 0.012131065 0.021575958 -0.13623765
000380 ae 9c f8 bd d0 39 21 be 24 ea 69 be fb cd 91 3e
       -0.12139259 -0.1574471 -0.22843224 0.28477463
000390 f8 a0 35 3d 90 c7 82 3c bf 3a 8a 3e a3 64 6b 3e
       0.044342965 0.0159643 0.26997945 0.22987609
0003a0 03 e9 93 3d 47 67 8b 3d 8f c0 41 bb 1b 50 d2 3d
       0.07222178 0.06806808 -0.0029564237 0.10269185
0003b0 77 d1 23 bf 8f c9 4e be a3 a0 86 3e e2 ad 46 bd
       -0.63991493 -0.20194076 0.2629443 -0.04850567
0003c0 5b 50 b1 3d 48 80 10 be a5 19 ad bc d9 4c 0c 3f
       0.08657905 -0.14111435 -0.021130392 0.5480476
0003d0 12 ba 91 3e 82 a8 96 3d 96 55 65 be 2f f5 2d 3d
       0.28462273 0.07356359 -0.2239593 0.042470153
0003e0 ae c4 aa 3d 1f da 62 be 03 06 66 bf da 78 01 bf
       0.08338295 -0.22153519 -0.89852923 -0.5057503
0003f0 7f 23 33 bd 2c 34 3f be c1 52 2b 3e b9 b5 a3 3c
       -0.043735024 -0.18672246 0.16730787 0.019984113
